06_CROP_YIELD_PREDICTION/best-model.pt (torch, 5736 bytes, 3 tensors)

out.0.weight f4 [128, 5]
000000 26 be d0 be 97 78 84 be 27 ce 77 be 32 63 c9 be
       -0.40770072 -0.25873253 -0.24199735 -0.39333493
000010 6b ad 47 3e e3 bc e9 bd a3 a0 90 3d 70 41 cf be
       0.19499747 -0.114129804 0.07061889 -0.40479612
000020 76 03 08 be fd c1 bf 3e 1f ec 98 3e 77 c4 5b 3e
       -0.1328257 0.3745269 0.29867646 0.21461664
000030 64 a7 c8 3e 39 d7 cb be 51 59 35 be 86 a5 dc 3e
       0.3919021 -0.3981264 -0.17709853 0.43095034
000040 fa b4 94 be 03 f6 bf 3e bb 83 98 be 51 58 d8 be
       -0.29044324 0.3749238 -0.29788002 -0.4225488
000050 29 b3 6f be 0e ad 4e be 55 46 97 3d 0d 5a 24 3e
       -0.23408188 -0.20183203 0.07386462 0.16049977
000060 7d 1a dc be 8e f9 99 bd d4 ef 29 bd a5 56 46 bc
       -0.4298896 -0.07518302 -0.041488484 -0.012105619
000070 79 f6 cf 3d 8d b4 25 3e 5b 11 6f be 6a 8b a7 be
       0.10154433 0.16182156 -0.23346464 -0.32723552
000080 40 99 3e be b6 ce cd 3e e7 ff 9f be 1e 2b 39 3e
       -0.18613148 0.4019677 -0.31249925 0.18082854
000090 3a 89 5f be 1b 6a 88 3e 73 0d 3f 3d b2 0e 55 be
       -0.21829692 0.26643452 0.046643686 -0.20806387
0000a0 62 36 a5 bd 30 3a 66 3d c6 80 a4 3e c9 ec 7c 3e
       -0.08067013 0.056207836 0.32129496 0.24699701
0000b0 5f 4b b8 3e 63 bb cc 3b fa 6e 5b be d4 2b a0 3e
       0.35995004 0.006247924 -0.21429053 0.31283438
0000c0 79 30 6f 3e bc b0 75 3d 51 9a d8 be 2b 9e 75 be
       0.23358335 0.059983 -0.42305234 -0.23986118
0000d0 92 b0 9a be 63 60 d9 3e 09 dc bf 3e e0 98 95 3e
       -0.30212837 0.4245635 0.3747256 0.29218197
0000e0 56 ca b2 3e 29 35 28 3d 21 77 49 bd 3c a7 80 3e
       0.34919995 0.041066322 -0.049185876 0.2512759
0000f0 df 5c 80 bc e7 2b 0f be 4b 5a 53 bd 01 e9 8c be
       -0.015669284 -0.13981591 -0.051599782 -0.27521518
000100 b1 ab 92 bd b8 f4 b9 3e 6f 02 9d 3e 62 d9 8e 3d
       -0.07161654 0.36319518 0.3066592 0.06975056
000110 5c 01 31 3d 9d a2 81 3e b1 98 be be 4e dd 4d 3e
       0.043214187 0.25319377 -0.3722587 0.20103952
000120 2c f9 18 3d 57 54 bb be de b8 96 be 18 d1 d4 3e
       0.037347004 -0.36587784 -0.29437917 0.41565776
000130 b0 34 49 be 18 a0 ca 3d f5 b1 91 3d 0f 62 5d bd
       -0.19649005 0.09893817 0.07114021 -0.054048594
000140 18 bb 43 3e 84 70 e2 be 55 a2 65 3e d6 c3 c7 bd
       0.1911434 -0.44226468 0.22425206 -0.097541496
000150 96 fb 25 be 35 a1 8c be c1 ad d1 3e b9 73 49 3d
       -0.16209254 -0.2746674 0.40952876 0.049182627
000160 52 0e 8f be ed 67 05 be bb f3 01 3d 48 f1 63 be
       -0.27940613 -0.13027926 0.03172658 -0.2226001
000170 b3 17 65 3c 5e 2c c1 3e f7 e5 a5 3e 12 ce e3 3e
       0.013982701 0.37729162 0.32402012 0.44493157
000180 82 af 36 3d 78 30 9b be dc 1d 43 be e1 85 52 3e
       0.04460097 -0.30310416 -0.19054359 0.20558883
000190 c3 5a d1 be d4 fb 3a 3d 1a 37 16 be d0 0e e4 be
       -0.40889558 0.04565032 -0.14669457 -0.4454255
0001a0 a6 28 d2 be aa ab a9 be d6 05 8d be 14 f7 ae 3e
       -0.41046637 -0.33138782 -0.27543515 0.3417288
0001b0 78 48 ca 3e ab 68 ea bd 34 4c 09 3d 24 f5 b2 be
       0.39508414 -0.11445745 0.03351994 -0.34952652
0001c0 2c f8 3f bd fb 98 ab 3e cb b2 e1 be 4c 56 84 be
       -0.046867535 0.33515152 -0.4408172 -0.2584709
0001d0 87 8b d4 bd 6f f1 e0 3e e7 03 c0 3c fc 81 04 be
       -0.10378175 0.439342 0.02343936 -0.1294021
0001e0 6b 2a d9 3e fe 63 8f 3e 15 6c 90 be b2 80 c5 bc
       0.42415175 0.28005975 -0.2820746 -0.024109218
0001f0 06 4f bc 3e 1c 4f 77 be 41 32 69 3d 35 7d 09 3e
       0.3677904 -0.24151272 0.05693269 0.13426669
000200 dd 43 49 be 4e cf 8e 3e ac 7f ae be c9 2f 84 3e
       -0.19654794 0.27892536 -0.3408178 0.25817707
000210 b6 a8 8c be d6 48 28 3e 4e 20 dc be 79 3c 45 3e
       -0.27472466 0.16434035 -0.42993397 0.1926135
000220 b4 a7 5c 3d 55 22 9b bd 47 a2 45 be 74 0c da be
       0.05387087 -0.07574908 -0.19300185 -0.42587626
000230 d5 ea 97 be 6f 5c d5 be 95 de ce 3e 39 59 ab 3e
       -0.2967135 -0.41672084 0.40404192 0.3346651
000240 5f 6f b3 3e 69 db 3e 3e 11 04 ea bd 7b b9 d6 be
       0.35045907 0.18638386 -0.11426557 -0.41938385
000250 ff c3 fd bd 61 94 cd bd 75 52 58 3d 9f f2 d2 3e
       -0.12390899 -0.10038067 0.052813012 0.4120073
000260 c6 45 ac 3e cf ce 6a 3d 34 b1 db 3d 91 aa d3 be
       0.33646983 0.057326134 0.10727158 -0.4134107
000270 95 39 d8 be 61 4c 9c be 9c ff c4 3c 41 6c 85 bd
       -0.42231432 -0.30527022 0.024047665 -0.065147884
000280 14 b5 7d bd 52 18 23 be 0f d7 cd be 3a 27 b1 3e
       -0.061940268 -0.15927246 -0.4020314 0.3460024
000290 4a bd 3e 3c 69 63 64 be 24 9b fe 3d 50 11 7b be
       0.01164181 -0.22303547 0.124319345 -0.24518323
0002a0 97 37 9a 3e 46 eb 56 3d b8 25 89 3e f7 84 88 3e
       0.30120537 0.052470468 0.2678659 0.26663944
0002b0 43 a1 bc be cc e9 95 be 89 6b 18 3e f2 24 3b 3e
       -0.36841783 -0.29279935 0.14884771 0.18275812
0002c0 a9 cd 4b be 01 d4 22 3d 4b 4a 14 3e 33 d3 40 be
       -0.19902672 0.039752964 0.14481466 -0.18830566
0002d0 e1 8f ba 3e 54 d7 d7 be bc 20 dd 3e b4 f8 e4 be
       0.36437896 -0.4215647 0.43189037 -0.44720995
0002e0 ff ef be be 5c 20 c5 be 50 3d bb 3d 8d 24 91 be
       -0.37292477 -0.3850125 0.09142554 -0.283482
0002f0 b3 e3 4e be d2 29 4d be 5b 31 ca 3e 54 9a 91 3e
       -0.20204048 -0.20035484 0.3949078 0.28438056
000300 3a c1 d7 bd ca 19 d1 be 6e 60 5b 3e c8 51 40 3b
       -0.10534902 -0.40839988 0.21423504 0.002934562
000310 87 24 92 3e a3 69 ab be e6 d4 1c be b7 35 c9 3e
       0.28543493 -0.33479032 -0.1531559 0.39298794
000320 ba 71 77 3e 27 e1 dc 3e fb d7 7f 3e 76 5b a0 3e
       0.24164477 0.43140528 0.24984734 0.3131978
000330 31 05 c1 3e cd 6d 86 be e0 2f d2 bd 3e 48 d7 3d
       0.37699273 -0.26255646 -0.10263038 0.10511826
000340 97 7c 99 3d 12 ec 9b be 4b 85 3c bd 2f 05 8f 3e
       0.07494467 -0.30453545 -0.046025556 0.27933642
000350 2e 08 a6 bd fa e7 c5 be e9 47 66 be 4f 5f a4 bd
       -0.08107029 -0.38653547 -0.22488369 -0.08025991
000360 2e 64 ae be b7 96 e2 be 0d dc c8 3e 7e 3a 41 3c
       -0.34060806 -0.4425561 0.39230385 0.011793731
000370 17 f2 b9 be c9 75 86 be 9c bb 90 bd fe 60 60 3d
       -0.36317512 -0.26261738 -0.07067034 0.05478
000380 a4 c9 d2 3e 49 d0 bd 3e 2c c5 13 bd 0d 0c cb 3d
       0.41169465 0.3707297 -0.03607671 0.09914408
000390 3e 0a 3b be 38 fa ab be 92 34 ab be 22 f0 d9 3e
       -0.18265626 -0.3358934 -0.33438545 0.4256602
0003a0 9b d1 0a 3c 48 bb 60 be 08 14 24 3e 69 e4 87 be
       0.008472825 -0.21946442 0.16023266 -0.2654145
0003b0 29 ba 98 3e ea 11 b8 bd 74 00 b9 3e 47 6f 24 3e
       0.2982953 -0.08987792 0.36133158 0.16058074
0003c0 d5 10 cd be 93 6d a9 be 00 e3 a3 be 43 41 cd bd
       -0.40051904 -0.3309141 -0.32009125 -0.10022213
0003d0 70 94 82 3d 34 22 7b be 41 7b 85 be 37 2e b9 be
       0.063759685 -0.24524766 -0.26070598 -0.36168072
0003e0 12 7e 00 3d eb 44 9b 3d 49 f1 43 3d 24 88 b1 3d
       0.03137023 0.075815044 0.04783753 0.08668545
0003f0 5d 6c 5f be 33 82 82 be 47 03 79 be 15 c0 2b 3e
       -0.21818681 -0.2548996 -0.24317656 0.16772492

out.0.bias f4 [128]
000000 09 30 10 3e 92 ca a3 3e 37 9f 87 be d4 d4 99 3e
       0.14080824 0.31990486 -0.2648866 0.30045187
000010 7d 1a bc 3e ad 77 86 3e c2 99 24 3d 9a 45 10 3e
       0.3673896 0.2626318 0.040185697 0.14089051
000020 11 4e c4 be 60 20 b5 bd 97 4a 36 3e 89 05 ab 3e
       -0.3834081 -0.08844066 0.17801891 0.3340266
000030 41 17 0f 3e 67 76 12 3e bc de 95 be 86 ef 6a 3e
       0.13973714 0.1430298 -0.29271495 0.22942933
000040 9c c7 a1 3e a8 6e cf 3d f5 db bf bd 3e 93 3d 3e
       0.31597602 0.10128528 -0.09368125 0.185132
000050 92 ca 06 bd 98 db cc bc 91 6c 5f 3d 12 b0 4c be
       -0.03290803 -0.025007054 0.054546896 -0.1998904
000060 ae 8d e3 bd e7 2a 9e bb 5d 51 50 3e d7 15 98 be
       -0.11111008 -0.0048268917 0.20343538 -0.29704162
000070 42 a8 68 3e 96 46 27 3e 27 2e a4 3e 7f b2 99 3e
       0.22720435 0.1633552 0.3206646 0.30018994
000080 72 64 6f 3d 09 49 27 bd 85 24 bc 3e 32 27 20 be
       0.0584454 -0.040841136 0.36746612 -0.15639952
000090 5d 50 5a 3d 74 35 d9 3e 43 3c 70 be dc 20 4a be
       0.053299297 0.42423594 -0.23460488 -0.19739097
0000a0 4e b5 ce 3d e4 77 8b 3e 32 01 c6 be 9d f0 04 be
       0.10093175 0.27239907 -0.38672787 -0.12982412
0000b0 24 f6 9c 3d 36 56 2d 3e fd 68 d3 3e 18 de ed bc
       0.07664135 0.16927418 0.41291037 -0.029036567
0000c0 b3 5c 88 3d 42 0e a4 be a5 bd b9 be 06 69 d1 be
       0.06658306 -0.32042128 -0.362775 -0.4090044
0000d0 fa 1a 3d 3e 1b 0f 2d 3e 78 75 35 3d 5f b4 db bc
       0.18467322 0.16900294 0.04430148 -0.026819406
0000e0 2a 7d d3 3e e8 5f 8d be 7c 95 ca 3e f1 2a 29 3d
       0.4130643 -0.27612233 0.39567173 0.041300718
0000f0 b5 8d 01 be 8d 4e 79 be d9 5c 61 3e 6a 5b af 3e
       -0.12651713 -0.24346371 0.22008075 0.3424943
000100 42 4e a3 3d 4d 64 be be 39 0c 04 be 8f cb 96 bc
       0.07973911 -0.37185898 -0.12895288 -0.018407611
000110 34 5b 81 be 45 e8 3b be 5a 39 96 be be 0c 01 3e
       -0.25264895 -0.18350323 -0.2934063 0.12602517
000120 d3 81 f6 3d 60 f1 59 be 65 34 4a bc 49 03 c3 3e
       0.12036481 -0.21283484 -0.012341593 0.38088444
000130 e3 76 e2 bd 19 8e 4e bc c4 cc 5b 3d 70 40 d9 3e
       -0.11057832 -0.012607121 0.053662077 0.42431974
000140 2e 7a 61 3e b9 5b 79 3d 1f e8 cf 3e 97 8c be bd
       0.22019264 0.06087849 0.40606782 -0.09304159
000150 2d f9 d7 3e 8a ca d5 3d bd e2 9b be 99 b7 ca be
       0.42182294 0.10439022 -0.30446425 -0.395932
000160 3f 9d bf bd 82 f2 b6 be 12 7e 27 bd 27 30 07 3e
       -0.09356164 -0.35731894 -0.040891714 0.13201962
000170 f2 2c 05 be f1 44 b8 be 66 9c ab 3e 4a 79 d8 be
       -0.13005427 -0.35990098 0.3351776 -0.42280036
000180 37 a9 6f be 36 10 cb bc 4a 9d 1b bd c8 95 7e be
       -0.23404394 -0.024788003 -0.0379918 -0.24861825
000190 a6 92 ea 3c ae 55 f6 3d a1 46 3e bd 73 68 7e be
       0.02863438 0.12028061 -0.046454076 -0.24844532
0001a0 33 dc c8 3d 16 85 dc bd a0 05 bf be fd a3 a8 3d
       0.09807625 -0.10767572 -0.3730898 0.08234403
0001b0 34 7a 88 3e 5a 84 d6 3c a1 0a cb 3e 7d 32 b8 3e
       0.26655734 0.026186157 0.39656547 0.3597602
0001c0 37 80 d5 be 45 d7 c6 be ed d8 7f be 71 b5 f1 bd
       -0.41699383 -0.38836113 -0.24985094 -0.11802185
0001d0 5b 18 39 3e 23 e1 94 bd 8d 33 6c 3e 94 65 de 3d
       0.18075697 -0.07269504 0.2306654 0.10859218
0001e0 1b 4d b4 be ff 7f 1f be ad af 51 be 60 df 82 bd
       -0.35215077 -0.1557617 -0.20477171 -0.06390262
0001f0 39 62 da 3e ec c7 9a 3e 63 0a a0 be 26 2d a2 3d
       0.42653063 0.30230653 -0.31257924 0.07918768

out.1.weight f4 [1, 128]
000000 9e 66 47 3c 1f f2 97 bd d5 f7 9e bd 04 c5 84 3c
       0.012170462 -0.07419228 -0.07762114 0.016207226
000010 11 48 b1 3c 12 70 51 3c be ab 2e bc 8a 41 12 bd
       0.02164081 0.012783067 -0.010661064 -0.035707034
000020 d8 18 90 bd a8 ce 83 bb 4d 83 c2 3d d6 ac 9d bd
       -0.070359886 -0.004022438 0.094977 -0.076989815
000030 3f 64 82 3d 16 78 95 3d 56 1e 69 3d 7d 95 86 bd
       0.06366777 0.07298295 0.056913696 -0.065714814
000040 df 53 b2 3d ae 94 20 bd ab 3a b2 3d 12 b8 53 bd
       0.087074034 -0.039204292 0.08702596 -0.051689215
000050 88 96 a1 3d b0 01 7a 3c 28 31 81 3d 6d f9 6b 3d
       0.0789004 0.015259191 0.06308204 0.057610918
000060 a5 d1 a9 bd 0d b1 7c bd 4a a0 d2 3b a3 3d 75 3c
       -0.0829194 -0.061692286 0.0064277994 0.014968309
000070 2f d7 9a 3c 58 9a 3a bd 71 75 11 bd c4 4f 80 bd
       0.018901436 -0.04555735 -0.03551239 -0.06265214
000080 7f 88 9e 3d f4 5f c3 bc b7 11 29 3c 3e c6 45 bd
       0.07740878 -0.023849465 0.010319165 -0.04828476
000090 e5 b6 a2 bc bc aa c3 3a 17 e7 6e 3d 35 eb 28 3d
       -0.019862602 0.0014928202 0.058325853 0.041239936
0000a0 5e 6a 1c bb 51 15 72 bd 95 cf c5 3c 3f 47 8e bb
       -0.002386711 -0.05910236 0.024146834 -0.0043419893
0000b0 0b 29 1d 3d 82 b1 48 3d 5b df 0c 3d b9 43 8a bd
       0.03836922 0.04899741 0.034392696 -0.06751198
0000c0 1d 6c 88 3c 1a d5 ac bb 0d 7c e8 3c 79 e0 39 3c
       0.016653115 -0.005274427 0.028379465 0.011345022
0000d0 5d a1 e1 bc 4e ce 97 bc d5 58 82 3d 74 71 c7 bb
       -0.027542764 -0.01853099 0.063645996 -0.0060865227
0000e0 7c 68 9d 3d a6 1d d4 3c 20 b9 87 bd f7 31 87 3d
       0.076859444 0.025893044 -0.06627107 0.06601327
0000f0 46 90 87 3c 27 f0 90 3d dc fd 4c bd f0 cd 58 3c
       0.016548287 0.070770554 -0.050046787 0.013232693
000100 8e 54 c0 3d dd f3 d6 bb ee 03 96 3d cc 75 ae 3c
       0.093911275 -0.0065598325 0.07324968 0.021296404
000110 1a 97 8c bd e2 28 a1 bd cd 7e d7 bc c3 d7 f8 bc
       -0.06864758 -0.07869126 -0.02630558 -0.03037632
000120 dd 89 1a 3d 19 05 09 3d 80 0b f1 3c 47 34 dc bc
       0.037729133 0.033452127 0.029424429 -0.026880397
000130 31 2c 27 bb 72 72 1a bd e4 bd 9a bd a1 a0 f9 3c
       -0.0025508518 -0.0377068 -0.0755575 0.030472102
000140 50 b9 04 3d 25 76 09 bd 9f 0b fe 3c ac 35 ab bd
       0.03240329 -0.033559937 0.0310114 -0.083598465
000150 18 3d 84 bd a3 db a3 bd 5f 9f a5 bd 12 9e 40 bd
       -0.06456965 -0.08000877 -0.08087038 -0.047025748
000160 b0 db 82 bd 55 f5 62 3d ad 2a 2e 3d 20 e9 37 bb
       -0.06389558 0.055409748 0.042521168 -0.0028062537
000170 9d af a7 bd ad 64 da 3c d8 62 0e 3d 09 91 25 bc
       -0.081877925 0.026659334 0.034762233 -0.01010538
000180 8f 22 93 3d 75 e6 1f 3b e6 45 37 3d 05 4d 2d bc
       0.07184326 0.0024398838 0.044744395 -0.010577445
000190 26 0d 0b 3d 70 a1 9d bd 17 da b9 3c 2a 87 68 bd
       0.033948086 -0.076968074 0.022687001 -0.056769527
0001a0 0f 00 b3 3b c1 0a f6 3c 09 a0 69 bd c3 08 35 bd
       0.0054626535 0.030034425 -0.057037387 -0.04419781
0001b0 7f 59 24 bd f9 77 83 3d af 6a 6f 3c ea b1 7f 3d
       -0.040124413 0.06419367 0.014612838 0.06242553
0001c0 fb 75 81 bd 46 bd 8a bc 65 1a a2 3b 33 48 93 3d
       -0.06321331 -0.016935956 0.004946994 0.07191505
0001d0 94 63 b8 3d 0e a1 99 3d 14 d6 a5 3d 0a aa b6 bc
       0.09003368 0.07501422 0.08097473 -0.022297878
0001e0 b6 f0 cb bc 59 cd 9f 3d 80 56 23 3d 31 c3 b2 bd
       -0.024895053 0.07802839 0.039877415 -0.08728636
0001f0 eb 28 87 3d b0 ef af 3c 34 35 98 3d bf 58 63 bd
       0.06599601 0.021476597 0.07432023 -0.055504557
